CosineTransform/weights.npy (npy, 80128 bytes, 1 tensors)

array f8 [10000]
00000000: 7cff 71ba 7984 e23f 90f0 4447 6f72 a8bf
00000010: 92d2 9cbe 44b0 76bf 2088 b6ff 84a6 873f
00000020: b05f c1ad 303d 8d3f d6a1 f08c c6ed 973f
00000030: 7179 ad4f 694d 973f baf7 1881 24e9 903f
00000040: a456 9a90 f403 8a3f 4ec3 31f6 1b94 753f
00000050: 60f5 3406 d91e 763f dec0 b4af 9f4e 573f
00000060: aab3 e592 1741 6bbf 409d 56d3 06ac 1d3f
00000070: 0687 4f9a 810b 5bbf aa76 e3d4 5692 65bf
00000080: 1ab3 9883 a7de 65bf a0e9 b2c5 2e40 5bbf
00000090: 9011 cfff 0eeb 5ebf 4557 e46e f011 553f
000000a0: c803 d139 671a 3b3f f345 0aad 0bf6 503f
000000b0: 537f 3037 2511 56bf ebcb fc18 9c99 4fbf
000000c0: 7eff 1cb8 2819 57bf c89d 917d 681d 3abf
000000d0: 69c7 cdd7 a6ad 48bf 307c 813a 7b53 553f
000000e0: b68a a3d0 dac2 5a3f 42fd fadc 79d1 5a3f
000000f0: 28ce cdec 79ff 4b3f 5095 0b37 cd20 5c3f
00000100: 9864 2ff9 0937 22bf 4651 b91c b426 183f
00000110: f005 eae4 a5ee 543f 9a83 d9f7 951a 373f
00000120: f701 1fc6 a24e 4fbf aa0c c6ab 9fd5 383f
00000130: 58e6 8606 a105 4e3f 9e1e 5cd8 e513 55bf
00000140: edc1 03a6 cfad 593f 9590 7353 6360 4bbf
00000150: 98df 6f4a 2cc0 35bf 93da 23c7 7ae3 52bf
00000160: 174d 5946 3a2b 3cbf 15c3 873b e4ed 4a3f
00000170: 38aa edfc 7107 403f 5052 d7da 070a 413f
00000180: 3446 f078 ce41 49bf fb39 ffd9 6da1 393f
00000190: 8183 3090 7068 41bf c4b4 01d0 13f6 323f
000001a0: b1ce 734d 240a 31bf b047 95a9 6228 403f
000001b0: e3ef 94ae e122 613f c2a9 37e4 0717 4a3f
000001c0: d887 fdd8 feb4 343f e323 b395 9d4b 4cbf
000001d0: 0a12 cd70 26b5 57bf fee6 b904 ffe3 32bf
000001e0: 1680 7ea1 f016 4bbf 603c 0dc5 36c1 14bf
000001f0: b083 58e5 0160 24bf 74fb 19ea 2ab5 3d3f
00000200: 3c6b 71f4 47af 403f 904c c7c2 d270 363f
00000210: bf67 3d80 a191 463f 04e3 afc7 cb79 393f
00000220: 400e 4784 a2b6 443f e8e0 7bef 05c1 2a3f
00000230: a846 cc06 61dd 32bf 9308 0f35 a000 31bf
00000240: 2724 275d 2cd9 48bf c496 9d19 ac24 263f
00000250: 7874 ded5 f244 14bf e05a b406 f6a7 1dbf
00000260: c030 b05f 7eee f93e 8895 1852 e316 35bf
00000270: 8cfc 53e6 c920 173f bcf1 84c2 d1b3 193f
00000280: a89e 5dc7 0d6d 213f 8480 9d1d 60e4 383f
00000290: 14a3 6ea6 5685 22bf 709c 7429 1a35 133f
000002a0: 3251 7174 3248 393f 1816 2a8b b7ac 253f
000002b0: c0be 1fbc c94e 13bf 1ee9 c6c7 3084 30bf
000002c0: b08c f299 217e 33bf f807 244a a9aa 0bbf
000002d0: 0f19 c640 ceb0 313f 50b2 2115 9a7f 2d3f
000002e0: 50e8 ff42 7dc4 20bf e0c6 2de0 ce59 1d3f
000002f0: 90f8 6d38 15d3 3d3f 8cc5 5967 22f6 23bf
00000300: ca83 d736 dc18 35bf 6845 3dd4 e61c 28bf
00000310: 8e07 359d 3858 34bf e09d e151 b823 10bf
00000320: 44fb 1704 2cc3 62bf fa3f 472e 82b2 b33f
00000330: c274 ebba 990d 94bf 746e 0ac3 19f7 a5bf
00000340: b156 9061 40e4 91bf e8e5 0f3b 513c 4cbf
00000350: 59b1 e74c 9be1 903f e01c 9d2a 94a3 9c3f
00000360: 011d 1f2a 9f5c 983f 102b 8ff0 3f0e 913f
00000370: 7e1e 22a2 9f25 843f 0dfb 14d1 0643 7f3f
00000380: b59b 0bf8 ce1c 803f 928f 815a f5de 65bf
00000390: c819 2075 3857 72bf 6056 542c 2e5b 7abf
000003a0: 2818 9f0a a973 78bf 4dc4 c9ce afbf 74bf
000003b0: 84d9 eb80 8c85 59bf 12ba 9402 763e 6abf
000003c0: 27c8 6a66 be45 5bbf b476 2732 bf40 6bbf
000003d0: 7815 2386 c65f 2b3f 05da 19d4 54c7 63bf
000003e0: 9c18 67c2 75f1 5d3f 387c 05c8 7bc7 673f
000003f0: 8e98 2f1f 3584 6f3f b9cd c163 1163 753f
00000400: 552e 2e09 6055 673f 8e54 5137 28cb 46bf
00000410: 18e0 8308 144f 50bf 7044 9cc4 f40a 2b3f
00000420: e828 3b4e ead9 54bf 9fea b581 e707 55bf
00000430: 20c5 9979 6496 413f e86d 0561 ca4c 613f
00000440: 75e3 a3c0 af40 653f bf52 37b6 8987 563f
00000450: 58dd ea3c ac3e 3a3f 405b 01f2 9d07 17bf
00000460: f0a2 0e24 2384 5bbf cf27 a089 ebb1 463f
00000470: 407e 5854 bcd3 23bf d248 8289 ecf8 4cbf
00000480: e609 9d8c c696 64bf c09d 9380 2361 5abf
00000490: 9f13 16f3 0a53 41bf c0a6 0449 0b96 18bf
000004a0: 530b d048 2ee4 583f 57a9 c969 4452 553f
000004b0: e8f5 167a 949a 603f 8ed8 c0b1 6cb8 573f
000004c0: 0402 b3fb 448b 443f e88c c1af 2a27 36bf
000004d0: 7c16 b5ae 9f34 39bf a0e8 555d e129 3f3f
000004e0: 20a3 b4de ebba 393f 40b0 92a4 cee8 253f
000004f0: a00f eeb6 284d 303f 00d2 f770 6473 53bf
00000500: 7e50 9fd7 2ec6 50bf a404 208f 2a16 50bf
00000510: 80d5 1984 886c 4abf 905c 02c9 4df8 41bf
00000520: acc8 aa09 ad74 4a3f 6438 dbea f58d 543f
00000530: a8e0 f0d2 4bdb 353f 88bd 8325 c19c 4e3f
00000540: 000c 7d05 08bd 3abf a416 da88 32ec 3bbf
00000550: d824 8d33 2470 303f 84c7 99c7 df5f 333f
00000560: e836 7d98 fb80 373f 188a 1c38 e946 35bf
00000570: 5c70 0f95 698d 4fbf 0bb8 bddf f668 53bf
00000580: e0ec 45a2 24d9 15bf 281e 03d7 bfd2 2fbf
00000590: 3013 aa57 197f 2bbf ca0a d8f8 db1c 4c3f
000005a0: c036 682e 72e7 513f 3acb b255 c387 443f
000005b0: 36ab 43ad b120 413f 4414 438a 158c 2f3f
000005c0: 5e96 24bb f06d 42bf e8e5 3be4 d671 28bf
000005d0: 3a7f f7ac 4af5 33bf f0e4 4186 1a7d 14bf
000005e0: 7091 0456 7818 333f 3026 b210 8766 42bf
000005f0: 73d4 0825 5f95 43bf 7885 0932 4a48 34bf
00000600: 1211 81ca 2f6d 393f 7cd4 a1bb 3f3a 483f
00000610: f0b6 96c8 4624 1c3f 6005 0f6e 53a0 293f
00000620: c0f6 03fa 2860 053f 006c cf1d 6cf1 12bf
00000630: a06f c489 8137 253f b81f fc60 391d 2d3f
00000640: 6401 8ed4 259b a2bf 5429 9d31 1731 a13f
00000650: b979 6dab 3450 b23f 3cab 3119 815b 993f
00000660: 0baa f187 a36d 9cbf 7cce 64c1 6774 a5bf
00000670: df40 b1ce 49d6 99bf 6acd 6d63 c9df 82bf
00000680: 19fc 4fcf 1700 483f 8be9 9bc1 8185 813f
00000690: 744f 9b1e c8be 863f f23d 93f5 bd70 8c3f
000006a0: 4614 86af 122e 873f be39 7f8d 9cff 8e3f
000006b0: ccf5 1ee6 e4da 863f 1ab6 14b2 cccc 5c3f
000006c0: 3ac2 fe76 65ac 67bf 6480 b1a0 bed6 84bf
000006d0: add7 2d43 ef1e 86bf 3841 02be 2bb9 84bf
000006e0: 8878 a964 b379 82bf 4d7c a593 b0bb 40bf
000006f0: 688e c7ac 8b17 603f c8ff 3cb8 3c68 723f
00000700: 58ad e193 5c26 793f 90e6 9e47 8cec 753f
00000710: ea2b d7b2 374a 553f 0c6f 5b48 6a2e 53bf
00000720: 7469 c2c9 2012 45bf c0c5 4af8 723c 0dbf
00000730: 77b7 e6a4 c154 4fbf 98ac ae88 d583 22bf
00000740: 68cc ae36 1414 6b3f c4c3 31d1 b473 633f
00000750: b85c 1889 c4c3 2d3f d0f2 715e fe30 503f
00000760: 5b8a 0737 0c50 58bf 1c19 7467 fc65 5abf
00000770: f026 1348 b445 64bf 5c18 966e f3dd 493f
00000780: 747b 0f31 6a28 3c3f 7006 f3d8 07c2 3fbf
00000790: 6056 0044 1c4b 2ebf f461 f764 1251 3ebf
000007a0: 7516 ae75 1a76 45bf 48ad f50c 5e23 38bf
000007b0: 00d6 9fac 1f7f e1be 1e35 aace b58f 43bf
000007c0: b5b1 5972 3e58 43bf e0f6 89fe 06d7 4bbf
000007d0: 12a5 993f 4476 523f 2ee5 fbec cd6e 543f
000007e0: 87df a0a5 3fe2 583f 5290 3737 8d0f 413f
000007f0: 3d93 2410 99dd 523f d9a0 2046 dd52 5dbf
0.5786713258275848 -0.04774806733118553 -0.005539196523206018 0.011548079541913892 0.014276867201416937 0.023367979385655456 0.0227562384492272 0.016514368419158855
0.012702856696061922 0.0052682010892660235 0.005400512457808787 0.001422553962424237 -0.0033269367624399653 0.00011318961772720671 -0.0016506925251111317 -0.0026332565240484067
-0.002669646430851447 -0.0016632515678752582 -0.0018870970227321295 0.0012860153179352224 0.00041356105959172414 0.0010352243445236303 -0.0013468612130580107 -0.0009643566317890628
-0.0014098069809307108 -0.0003984813789145972 -0.0007531227744108474 0.0013016417888349723 0.0016333710541906305 0.001636857039485865 0.0008544297539700473 0.0017168048909124885
-0.00013896939034799684 9.212946241038853e-05 0.001277601247835821 0.00035253678638552113 -0.0009554190439687295 0.00037894390313670623 0.0009161983735374675 -0.0012864822942350372
0.0015673187081653953 -0.0008354649534365761 -0.0003318889743577579 -0.0011528681757774536 -0.0004298226616345642 0.0008218159119320634 0.0004891687948263617 0.0005199945787191605
-0.0007707842031569657 0.0003910916511785931 -0.0005312490105816443 0.0002893255587029348 -0.000260003912855948 0.000493095564858095 0.002091828141287154 0.0007962025196637734
0.00031596395364463575 -0.0008635062653407046 -0.0014469981571930712 -0.0002882478336015819 -0.000826709266210204 -7.917305744097177e-05 -0.0001554491342839171 0.00045330331531794684
0.0005091763822620897 0.00034241815117503575 0.0006887472704690741 0.000388729334815305 0.0006321233309382682 0.00020411679701460368 -0.0002878534203754981 -0.0002594367152221135
-0.0007583109493732907 0.0001689395983774292 -7.732135915579526e-05 -0.00011312903523151173 2.4730315981755886e-05 -0.00032179879971957386 8.822662637796209e-05 9.804694912402592e-05
0.00013294976423171745 0.00037982317518548575 -0.00014130289784233167 7.327053241522482e-05 0.0003857730084224797 0.00016536465189547 -7.365328113428504e-05 -0.00025201979567736506
-0.0002974350008548383 -5.2769938763588765e-05 0.0002699378535670074 0.0002250552739186001 -0.0001279261500711248 0.00011196446579988693 0.00045508640362602274 -0.00015229387252050882
-0.0003219163544070895 -0.00018396680581615342 -0.00031043417148534584 -6.156742571904834e-05 -0.0022903308570216014 0.07694257383195682 -0.01958313182227723 -0.042900853213009876
-0.01747227282984082 -0.0008616825708706562 0.016485621041213736 0.027967753506598636 0.023790823884863425 0.016655921037265264 0.009837386260428401 0.007632280948483905
0.007867447800391373 -0.0026697914182011806 -0.004477711236182853 -0.006434612621224994 -0.0059696772750097785 -0.005065619229399476 -0.0015577194314438667 -0.003203611839715189
-0.0016645774245884844 -0.003326772145768009 0.00020884798420276927 -0.0024143845374127192 0.0018275880807876793 0.0029027383426831997 0.003847221139483165 0.00522143166391536
0.002848327226677753 -0.0006956049316026046 -0.0009954162251784079 0.00020632017031422005 -0.0012726581707505572 -0.001283622818702902 0.0005367270088766675 0.0021118118967657813
0.0025943215051679688 0.0013750881997697665 0.00040046410587587155 -8.785153886612957e-05 -0.0016794531986567517 0.0006925964437425272 -0.00015126871055403009 -0.0008841662374996734
-0.00251330165056739 -0.001610073728722003 -0.000528698297941877 -9.378856544075675e-05 0.001519246291764549 0.0013013523195249588 0.002026834482164775 0.0014477788418055001
0.0006269537765533633 -0.0003380278792574757 -0.0003846063470585926 0.0004755187231563294 0.0003926111082415574 0.00016715548034562829 0.00024873966224724965 -0.001187179648579506
-0.0010238130039299793 -0.0009818473449743426 -0.000806395204746721 -0.0005483989534863665 0.0008073658858249919 0.0012545491730864495 0.000333505641666241 0.0009342139337870517
-0.0004079956611244273 -0.0004260657668527601 0.000250824774003689 0.0002956315362104766 0.000358640122148353 -0.0003246611960198444 -0.0009629025972759486 -0.0011846934202952599
-8.334432692962438e-05 -0.00024279205127285372 -0.0002097814975351663 0.0008579324800737861 0.0010927786876239604 0.0006265357764248865 0.000522696262604461 0.00024068606319907666
-0.0005624223179309764 -0.00018649814784747689 -0.0003045375169374757 -7.81581343875131e-05 0.0002913755215721214 -0.0005615386484276227 -0.0005976404737057086 -0.0003094845906500203
0.00038797776005973603 0.0007393656917559356 0.000107352085385339 0.00019551294738388413 4.07707696030552e-05 -7.226202383441016e-05 0.00016187149311341648 0.000222123388532445
-0.036339933582896916 0.033577656561265684 0.07153634248013575 0.0247631236674508 -0.02776198880421003 -0.04190372691882957 -0.025231507530691807 -0.009215901705579472
0.0007324329623087405 0.008555425377825518 0.011106074747125418 0.013886913353785755 0.011318346005973489 0.015135977810044273 0.01115969493172999 0.0017578124027964937
-0.002889822171674686 -0.01017521789452775 -0.010801190602915367 -0.010118810402020104 -0.00902118826814681 -0.0005106556120998501 0.001964352419450855 0.00449393957734396
0.006140100127690694 0.005352542846532096 0.0012994331294631186 -0.0011707342068154073 -0.0006430301759963578 -5.5763491251591395e-05 -0.0009561486747793187 -0.00014125806441476064
0.0033054728314368294 0.0023745090089097604 0.00022708677401859167 0.0009882434913201406 -0.001483928612395011 -0.001611229408639731 -0.002474643814456161 0.000789398062963863
0.0004296550042094873 -0.0004845875891526857 -0.0002311203006690075 -0.00046259593088174224 -0.0006549481580441901 -0.00036831899793439817 -8.343018084370872e-06 -0.0005969655733949785
-0.0005903534808573892 -0.000849607863599746 0.001126829766145147 0.001247120951971613 0.001518785624751802 0.0005206527261489935 0.0011514658695627865 -0.0017897759321475108
